2021-07-03 13:23:39,230: <INFO> Trying efficent model
2021-07-03 13:23:39,326: <INFO> Training model: attempt 0
2021-07-03 13:23:39,593: <INFO> Model: "efficient"
2021-07-03 13:23:39,594: <INFO> _________________________________________________________________
2021-07-03 13:23:39,595: <INFO> Layer (type)                 Output Shape              Param #   
2021-07-03 13:23:39,596: <INFO> =================================================================
2021-07-03 13:23:39,598: <INFO> dense (Dense)                (None, 7, 7, 320)         409920    
2021-07-03 13:23:39,598: <INFO> _________________________________________________________________
2021-07-03 13:23:39,600: <INFO> activation (Activation)      (None, 7, 7, 320)         0         
2021-07-03 13:23:39,601: <INFO> _________________________________________________________________
2021-07-03 13:23:39,601: <INFO> dense_1 (Dense)              (None, 7, 7, 80)          25680     
2021-07-03 13:23:39,602: <INFO> _________________________________________________________________
2021-07-03 13:23:39,604: <INFO> activation_1 (Activation)    (None, 7, 7, 80)          0         
2021-07-03 13:23:39,604: <INFO> _________________________________________________________________
2021-07-03 13:23:39,605: <INFO> dense_2 (Dense)              (None, 7, 7, 20)          1620      
2021-07-03 13:23:39,606: <INFO> _________________________________________________________________
2021-07-03 13:23:39,607: <INFO> activation_2 (Activation)    (None, 7, 7, 20)          0         
2021-07-03 13:23:39,608: <INFO> _________________________________________________________________
2021-07-03 13:23:39,609: <INFO> dense_3 (Dense)              (None, 7, 7, 5)           105       
2021-07-03 13:23:39,610: <INFO> _________________________________________________________________
2021-07-03 13:23:39,611: <INFO> activation_3 (Activation)    (None, 7, 7, 5)           0         
2021-07-03 13:23:39,612: <INFO> _________________________________________________________________
2021-07-03 13:23:39,613: <INFO> dense_4 (Dense)              (None, 7, 7, 1)           6         
2021-07-03 13:23:39,613: <INFO> _________________________________________________________________
2021-07-03 13:23:39,616: <INFO> activation_4 (Activation)    (None, 7, 7, 1)           0         
2021-07-03 13:23:39,616: <INFO> _________________________________________________________________
2021-07-03 13:23:39,618: <INFO> pool (GlobalMaxPooling2D)    (None, 1)                 0         
2021-07-03 13:23:39,618: <INFO> =================================================================
2021-07-03 13:23:39,621: <INFO> Total params: 437,331
2021-07-03 13:23:39,621: <INFO> Trainable params: 437,331
2021-07-03 13:23:39,622: <INFO> Non-trainable params: 0
2021-07-03 13:23:39,622: <INFO> _________________________________________________________________
2021-07-04 00:24:29,611: <INFO> Epoch 0, loss 0.4671
…
